onnx/test010.onnx (onnx, 404863 bytes, 4 tensors)

sequential_17/dense_35/MatMul/ReadVariableOp:0 f4 [128, 3]
00000000: 5d5a cd3d 3c09 7a39 4332 473e 1969 253d
00000010: eea2 bb3d e65a cfbd b236 b4bc 19b5 19bd
00000020: e6c5 093e d726 223e 586a dc3d eadf 8b3d
00000030: d38c 2f3e d7f2 343e cd94 06be 5d2a 59bd
00000040: eff9 17be 7fb8 9f3c 06fd 5a3e 7110 fd3c
00000050: 6baf 2a3e 27b3 49be fee7 4c3e 2680 5f3d
00000060: 29a5 7abd 0905 60be eee1 303d 654f 3a3e
00000070: d12b d2bd 9aeb 25be 6f5c 05be 948a e6bd
00000080: ddb6 2d3e b88d 23bb b4aa 903b fda5 403e
00000090: bfbd 1e3e e3eb b73d 07ed 30be 05ee 11bd
000000a0: 0bde dcbb 9131 e5bd b1c7 613e a048 f83d
000000b0: 6694 cbbd 6ba7 163d 12b5 083e 8510 02be
000000c0: 68c9 d23c 874f 0bbe e053 123e b0f0 5b3e
000000d0: c68d 0d3e c7b5 123e 446d a8bd 9705 a9bd
000000e0: 3221 3abe 2656 e9ba 7097 0bbe d372 533e
000000f0: ce97 0cbd 3146 0bbe 4671 22be b8a5 d7bd
00000100: 8f29 6a3e 46db 66be a959 dfbd 50b0 c9bd
00000110: 2128 22be 909e 4abe e668 e8bc d659 2cbe
00000120: c517 433c bedf 3d3d 08af 193e 8019 21bd
00000130: 0703 95bd 9e15 033e 11fe df3b 0476 b1bd
00000140: c3eb 51bd 6712 123e fac1 3ebe 80a5 fd3d
00000150: 8b48 43be c1c4 aebd fa8a a43d 8403 57bc
00000160: 9870 ee3d 07df 49be 5230 0fbe 7bc4 0d3e
00000170: 57cb 3d3e 0a61 48bd dd14 8f3d 4263 573e
00000180: f22f 513e 25c6 eabd 11cd ccbd efc1 243e
00000190: aa03 1cbb 6c75 a23d 25a9 98bc 23dc 48bd
000001a0: 9f65 f8bd 67b7 d13d f036 10be 48fd 0a3e
000001b0: 268f 083e bb99 1fbd b7fe dd3c 3ce1 abbd
000001c0: 8fd8 053e d254 cf3c 6c55 80bd 3b7c e3bd
000001d0: ed97 703e d245 103d 53a8 783e 541b 133e
000001e0: 01fd 3fbe 537b 8bbd ab63 f33d d210 073d
000001f0: 8480 423e 5814 aabd adc9 bfbd b6ec 943d
00000200: 5ece ea3b 0a60 59be cdd6 c33d 76fc 413d
00000210: bc72 c33d f442 143d cf71 d63d 4bd2 f43d
00000220: 1630 563e 073f 563e 0917 00be ebac 5f3d
00000230: 3c1e 94bd 786f 5dbe 59fd b63c 41a5 a83d
00000240: 64ce e23d e2db fb3d aff9 25be 3d06 f0bd
00000250: 7398 453d de26 e7bc ad6d 4bbe 427d c83d
00000260: ecba 1fbe 20aa f0bd bfcd 08be 152a 993c
00000270: 6495 bebd b7c4 f43c b147 1f3e b540 6abe
00000280: 8cdf 1cbd bddc 2abd 9571 e4bd 3e22 d83d
00000290: b48e 0d3e 04e8 24be 267e 233e c14d 60be
000002a0: 0826 59be b5bc b53d 5090 0e3e 52bd 6a3a
000002b0: be29 013e ceda 31be a2ce 09be 75da 3fbd
000002c0: ed0c 52be 94bd 413d d9bd 0ebe 2554 a13b
000002d0: 53b7 c0bd d1dc 29bd e608 313b 426f 463d
000002e0: d672 9f3d 1bc0 243e 146c 48be faf9 2bbe
000002f0: f74c bfbc 2d54 45be c150 39be 3ea9 6abd
00000300: 9a00 283d 9dad b93d 335b 643e 666c fdbd
00000310: c0fc 07be 96a5 56be 792e 503e 5132 a3bd
00000320: e0f2 3abe b145 84bd db5a a83d 84d6 f7bd
00000330: 1805 fa3d f472 043e adab 5bbe f08a f23d
00000340: a7e3 30be 31de 6ebd 89c7 ed3d 4e62 2b3d
00000350: 0385 5bbe 541f 813c 038f 40be 5034 483e
00000360: b89b b6bc 5a78 2e3e 6c2e 743c 2e5b 67bd
00000370: e9ce 6ebe 7dc1 39bb b824 0abe 3b2f b4bd
00000380: 04ea 0ebe 3b03 253e 1084 3d3e 3935 933d
00000390: b41b 763e 58e0 dcbc 6005 e83d 1f24 e33c
000003a0: bf68 623d 8189 2b3e 265b 31be 3d6e 0c3e
000003b0: 903d 0f3e fe43 7dbe 64a9 b9bd d844 81bd
000003c0: 04e4 6a3c ae46 653d ae2c 373e c1d9 5b3e
000003d0: ea4b 8dbd e644 423e efcf 27be d2b6 4b3e
000003e0: 2def 3ebe 4fdc 673d 5491 383e 5951 67be
000003f0: 5aba ccbd 0101 0a3e 9653 b5bb 5427 2a3d
0.10027001 0.00023845298 0.19452767 0.040383432 0.09161936 -0.101247594 -0.021998737 -0.037526224
0.13454399 0.15835129 0.10762471 0.068298176 0.17143564 0.17670761 -0.131427 -0.053018916
-0.14841436 0.019497154 0.21385583 0.030891629 0.16668479 -0.19697247 0.20010373 0.05456557
-0.061192665 -0.21876921 0.043184213 0.18194349 -0.102622636 -0.16203156 -0.13023542 -0.112569004
0.16964288 -0.0024956297 0.0044148806 0.1881332 0.1550207 0.08980539 -0.17277919 -0.035627384
-0.006740337 -0.11191095 0.22048832 0.12123227 -0.09940414 0.036780756 0.13350323 -0.12701614
0.025730804 -0.13604556 0.14289808 0.21478534 0.13823614 0.14327155 -0.08223966 -0.08253019
-0.18176726 -0.0017802163 -0.13631988 0.2064927 -0.03432446 -0.13600995 -0.15863523 -0.10529655
0.22867416 -0.22544584 -0.10905773 -0.09848082 -0.1583562 -0.1978705 -0.028370332 -0.16831145
0.011907523 0.046355955 0.15008175 -0.03933096 -0.07275968 0.12801215 0.006835707 -0.08665088
-0.05125023 0.14264832 -0.18628684 0.12385082 -0.19070642 -0.085336216 0.0803432 -0.013123397
0.11642569 -0.19713984 -0.13983276 0.13844483 0.18534599 -0.04892067 0.06986401 0.21033958
0.20428446 -0.11463574 -0.10000051 0.16089605 -0.0023805895 0.07932553 -0.018635342 -0.049038064
-0.12128758 0.10240059 -0.14083457 0.13573182 0.13335857 -0.03896497 0.027098997 -0.083925694
0.13070892 0.025309 -0.06266293 -0.111076795 0.23495455 0.035222836 0.2428296 0.14365894
-0.18748857 -0.068106316 0.118842445 0.032975025 0.18994337 -0.083046615 -0.093646385 0.072717115
0.007165714 -0.21228042 0.095624544 0.047359906 0.09543368 0.036196664 0.10470926 0.11954173
0.20916781 0.2092248 -0.12508787 0.054608267 -0.07232329 -0.21624553 0.022337602 0.08234645
0.11074522 0.12297799 -0.16208528 -0.1171994 0.04824109 -0.028216776 -0.19866057 0.09789516
-0.15598649 -0.11751199 -0.13359736 0.018696824 -0.09305838 0.029878957 0.15554692 -0.22876246
-0.03829913 -0.04171442 -0.111544766 0.10553406 0.13823968 -0.16104132 0.1596609 -0.21904661
-0.21205914 0.08873884 0.13922238 0.00089546025 0.1261358 -0.17368624 -0.1345773 -0.046839196
-0.20512743 0.047299936 -0.13939609 0.004923361 -0.09409966 -0.041470353 0.002701336 0.048445947
0.07785575 0.16088907 -0.19572479 -0.16794577 -0.02335213 -0.19270392 -0.18097211 -0.05729031
0.0410162 0.09066317 0.22300415 -0.12374191 -0.1328001 -0.20961604 0.20330228 -0.079685815
-0.18256712 -0.06458605 0.08220454 -0.121014625 0.12208003 0.12934476 -0.21452208 0.118429065
-0.17274342 -0.058317367 0.11610324 0.041841798 -0.21437459 0.015762009 -0.18804555 0.19551206
-0.02229105 0.17038098 0.014903646 -0.05648344 -0.23321117 -0.0028344088 -0.1349057 -0.08798071
-0.13956457 0.16114514 0.18507409 0.07187886 0.24034005 -0.026962444 0.1132915 0.027727185
0.055275675 0.16751672 -0.17319927 0.13713928 0.13988328 -0.24732968 -0.09065512 -0.06311959
0.01433659 0.05597561 0.17888138 0.21469785 -0.06899245 0.18971595 -0.16387914 0.19893959
-0.18645926 0.056606587 0.18024188 -0.22589625 -0.09996481 0.13476945 -0.005533646 0.041541412

sequential_17/dense_35/BiasAdd/ReadVariableOp:0 f4 [3]
00000000: 91ff 72bb eeb3 063b 7336 fcba
-0.00370786 0.0020554024 -0.0019242301

sequential_17/dense_34/MatMul/ReadVariableOp:0 f4 [784, 128]
00000000: a818 123d efc9 9abd 0024 383a bc08 273d
00000010: 3865 7a3d 91bd 31bd cbe4 9bbd 580b 92bd
00000020: 0225 f83c 1ceb e0bc 5c38 be3c 3fdd 5dbd
00000030: dcd3 50bd 21d2 5cbc 9e23 78bd 24cc c0bb
00000040: 6c18 e13c 138a eb3c 2201 54bc 54c7 2e3d
00000050: 5884 8abc 3338 6abd 3294 8fbd 2f9f 993d
00000060: 30e7 5d3c 4cab 8abd ec68 70bd f07f 95bc
00000070: 4a27 adbc 4f31 7f3d 18c5 a4bc 98d3 013c
00000080: a1dd 46bd 33fa 123d 6839 283d d230 5c3d
00000090: 1a4f 9ebd 000a f339 e25e 3d3d 1cda 9abd
000000a0: eab4 0e3d 1044 153c a4f7 9fbd bbd6 18bd
000000b0: d349 93bd dbda 36bd 241a 69bd 0de4 8d3d
000000c0: 6ca0 92bd 4ea5 613d 81bd 9dbd e060 8dbd
000000d0: cd33 18bd 6658 533d 13fe 85bd f0e4 c6bb
000000e0: 2632 403d 8134 3ebd 6d55 97bd 06d8 1b3d
000000f0: 7ec8 66bd efb9 99bd 2fd5 90bd 4a78 1abd
00000100: ea8e a4bd e3bc 7e3d b9c0 33bc 407d 03bd
00000110: fd44 a6bc 7b98 9b3c e04b 893c 4e0c 3e3d
00000120: 014d 14bd 9fd4 ebbc c998 85bd 2922 a63c
00000130: bcc6 8f3d 9e31 48bd 1b6d 83bd 0037 373a
00000140: 482c 42bc 3af5 0cbd 9f36 813d 6c2a 58bd
00000150: 96fd 343d 973b 3d3d 26f7 3ebd 8423 493d
00000160: c593 9b3d 783d 91bd af92 8bbd a57b 82bd
00000170: bfb6 5bb9 d946 ec3c 78a1 abbc c6e8 6c3d
00000180: 9252 d6bc 0036 9cbc a081 62bc c0d6 bf3b
00000190: 8cd8 0fbd f8c0 b43c 30fb e63b bb88 f93b
000001a0: 7856 123d 00e7 22bd 4090 d9bc a6f9 593d
000001b0: 7e13 bebc 1c59 a3bc 268c c3bc ea62 123d
000001c0: 648b e9bc 897b 983d 28d9 86bc 77f3 71bc
000001d0: ccb3 7dbc 6a28 48bd 7b6a 8e3d f1d7 9cbd
000001e0: 1adf 063d 2496 c5bc a319 6ebd 34ec 74bd
000001f0: 6e9e 793d b6f7 623c b87d e4bc 1817 9c3a
00000200: fbbb ddbc 1d59 fa3c 765e 9bbd 1e6f ae3d
00000210: b92f bf3c 94dd 0c3d d795 983d 10a5 963d
00000220: 18c0 c3bb 8007 fa3a ba25 503d bc1b 85bd
00000230: c9f3 853d 912c 9e3d ea7d 7ab9 1766 88bc
00000240: 8a92 bd3a 3a30 53bd 53c9 b43d 9d11 4abd
00000250: b218 44bd 7f3d 95bd 910c 99bd 4114 7abd
00000260: 8038 deba 1e1c 72bd b62a 89bd 0884 1fbc
00000270: 707a 8e3c 2d78 8e3d d780 df3c 80c1 cf3c
00000280: 2e6d 0c3d 1bda 09bc 0daa 23bd 03ba 6cbd
00000290: bb09 46bd 395e 97bd 0fb1 9e3d 0e1d 55bd
000002a0: 3049 df3c b49e 9fbd 58c6 66bd 3736 f13b
000002b0: a41a 313c fcc3 a23b 8803 023c 0726 25bc
000002c0: 86e7 7abd b45a e2bc 5104 973d 038a a3bd
000002d0: 2fcd 9ebd 3da3 693c 782e 97bc ab0b 1fbd
000002e0: c38d 86bd fdef 87bd 4c7f 203d 2e2e 513c
000002f0: 30ba acbd 7167 a2bd 8eb5 94bd 33b7 51bd
00000300: 586d 5bbd 8cb0 8b3c a6bd 70bd 1f3d 653c
00000310: e6ff 1f3b ac9b de3c f65e 06bc 2a41 91bd
00000320: 147b c0bc 8094 b93d 8531 77bd d446 ae3d
00000330: 7949 063d a414 893d cc61 80bd fdf2 e13c
00000340: 7406 4c3c 4914 f1bc 0df4 7cbd 82ee 8a3d
00000350: fda3 833d bedf 2abc 3034 603d b430 433d
00000360: 3074 efbc 34ce 643d 57f6 fe3b 42d0 50bc
00000370: 71c2 463d da3c 74bd 00de 7539 8385 8abd
00000380: 040d 193d 4c3c 833c ef11 67bd b46c 90bd
00000390: 3616 f7bc 01de 17bd bcf6 b23c f08b d9bb
000003a0: 579c 763d e5c1 dd3c d433 e73c 1708 9b3d
000003b0: 8f3f e3bc 78c6 7bbc e0b0 04bc 182e 88bd
000003c0: e841 50bc b025 83bd 1763 85bd 5290 403c
000003d0: 2dc9 813d e36a 8c3d 85d5 07bd f9b3 4ebc
000003e0: 244c 90bd 715d 2dbc 5ed2 933c 81b7 803d
000003f0: 88f6 203d 4639 47bd 2973 20bd dae8 cc3c
0.035668045 -0.07558047 0.00070244074 0.040779814 0.061131686 -0.043393675 -0.07611998 -0.0713107
0.030291084 -0.027455859 0.023220234 -0.054166075 -0.050983295 -0.013477833 -0.060580842 -0.0058837105
0.027477466 0.028752362 -0.012939723 0.042670563 -0.01690881 -0.057182502 -0.07010688 0.07501065
0.013543889 -0.067709535 -0.05869381 -0.018249482 -0.021136899 0.062302884 -0.020113513 0.007923983
-0.048551206 0.03588314 0.041070372 0.053757496 -0.07729931 0.00046356022 0.046233065 -0.07561132
0.0348405 0.009110466 -0.078109056 -0.037314158 -0.07191815 -0.04464231 -0.056909695 0.06928263
-0.07159504 0.055089287 -0.077021606 -0.06903243 -0.037158776 0.051597975 -0.065426014 -0.006069772
0.046922825 -0.04643679 -0.073893405 0.038047813 -0.056343548 -0.07506167 -0.070719115 -0.037712373
-0.08035071 0.062191855 -0.010971242 -0.03210187 -0.020296568 0.018993607 0.016759813 0.046398453
-0.03620625 -0.02878791 -0.06523282 0.02027996 0.070203274 -0.048875444 -0.064172946 0.00069890916
-0.011851378 -0.034413554 0.06309246 -0.05277483 0.04418715 0.046199407 -0.046622418 0.049106136
0.07596544 -0.07091802 -0.06815087 -0.063712396 -0.00020953546 0.028842377 -0.020951018 0.057839178
-0.02616242 -0.019068718 -0.01382485 0.0058544576 -0.035118625 0.02206467 0.007048987 0.0076151765
0.035726994 -0.03977108 -0.026558042 0.0532166 -0.023202654 -0.019939952 -0.023870539 0.035738863
-0.02850885 0.074454375 -0.01646097 -0.014767519 -0.015484761 -0.048866667 0.06953903 -0.07658375
0.03292761 -0.024119444 -0.058129918 -0.059795573 0.060942106 0.013853004 -0.027891979 0.0011908738
-0.027067175 0.03056007 -0.07586376 0.08517288 0.023338186 0.034391 0.07450455 0.07355702
-0.005973827 0.0019075722 0.05081723 -0.064994305 0.06540639 0.07723344 -0.00023888765 -0.016650243
0.0014463228 -0.051559664 0.08827462 -0.049333204 -0.047875114 -0.0728712 -0.074731 -0.061054472
-0.0016954094 -0.059108846 -0.066975996 -0.009736069 0.017392367 0.069565155 0.027283115 0.025360823
0.03428381 -0.008413817 -0.039957095 -0.057794582 -0.048349123 -0.073910184 0.07748615 -0.05202966
0.027256578 -0.07793942 -0.0563415 0.0073611992 0.010809574 0.004967211 0.007935412 -0.010079867
-0.061255954 -0.027631141 0.0737387 -0.07985308 -0.077539794 0.01426011 -0.018454775 -0.038829487
-0.06570008 -0.06637571 0.0391839 0.012767358 -0.0843395 -0.07929886 -0.07261191 -0.051200103
-0.053571075 0.017051958 -0.058774613 0.013991623 0.0024414002 0.02717384 -0.008201351 -0.07092507
-0.023496188 0.09061527 -0.06034996 0.08509603 0.032784913 0.0669339 -0.06268653 0.027581686
0.01245271 -0.029428618 -0.061756182 0.06783773 0.06427763 -0.010429321 0.05473727 0.04765387
-0.029230207 0.055860713 0.007780831 -0.012744965 0.048525278 -0.059628345 0.00023447722 -0.067637466
0.03736593 0.016019963 -0.056413587 -0.070519835 -0.030161958 -0.037076954 0.021846168 -0.0066389963
0.06020769 0.027069995 0.028222956 0.075699024 -0.027740268 -0.015367143 -0.008098811 -0.06649417
-0.012711026 -0.06403673 -0.065130405 0.011753159 0.06337199 0.068563245 -0.033162612 -0.012616151
-0.07045773 -0.01058136 0.018044647 0.062850006 0.03929761 -0.048638605 -0.039172325 0.025013376

sequential_17/dense_34/BiasAdd/ReadVariableOp:0 f4 [128]
00000000: a570 893c 634d 0b3c 4bca f53a f127 a13b
00000010: 40f5 183b 89ca cabb aa53 843c 5c4b d03c
00000020: dd68 f33b 766f 39bc f0a3 ffbb b703 eeb9
00000030: 008c f43b c86d c4ba a759 a43a 82e5 5d3c
00000040: fb1d 803c b61c 333c a75e aa3a 2670 16bc
00000050: 48de fabb d9db 8d3c c997 febb bed6 0a3c
00000060: 1dd9 2cbb d6fc d0b9 f5fa 37bc c311 643c
00000070: e21b c5bb a0ae c03b 1783 ce3b 0eee 9abb
00000080: c132 323c b191 233c 6fe7 06bc fb04 043c
00000090: 6498 bfba 1107 ee3b c12b 3d3c 9222 263c
000000a0: fc47 9bbb c7d5 f53b 9697 1d3a 6b9c a33c
000000b0: 1be0 3dbb eba9 f03c 90e0 3cbc 5072 7b3c
000000c0: ef70 a13b 81c4 f03b 313f 923c 24a7 613c
000000d0: eb4b ad3c 0b77 533c 2e65 a13b ccdd 043c
000000e0: 0978 543c b1fc e13b 343b 32bc da73 003c
000000f0: b102 aa3c 062f 16bc 1cf9 6e3c 578b 843c
00000100: 9ae5 54bb 122b 7338 59fa 943a 4e62 a13b
00000110: ca8f c13b ea61 4d3b 39c8 463b 5739 bbbb
00000120: f39f 07bc ba18 663c bce3 ab3b 1fbc 183b
00000130: 66a8 4a3c 46bf c6bb 7878 fa3c 9e76 a83c
00000140: 477d 2b3c fd13 293b 7c15 3b3c 65cf d03b
00000150: 6259 66bb 0c6e f23b 69f0 f93c 202a 653c
00000160: 4038 73ba 58b0 003b 0ed9 0a3b d5a2 4a3b
00000170: dd68 943c 7946 033b e303 eeb9 eba9 26bc
00000180: a5c4 293c 0e38 fc39 8010 143c 157b 273c
00000190: 8911 5f3b 1e44 0cbc 177f 4b3b 571b b6ba
000001a0: 44cb a63b 336b 723c 8216 723b 844a ca3b
000001b0: ac73 12bc f9bd 11bc d7dd 0a3d 278e 21bb
000001c0: 4486 9bbb da5e 2abc f941 163c 3f12 ff3c
000001d0: 257b 2f3c 41ab 1b3c 52b8 993c 5621 c63c
000001e0: 21c5 bf3b 25b4 0ebc 6a0a 713c d62c 863c
000001f0: 1220 47bc 64e6 023c e354 163b b581 243c
0.016777346 0.008502337 0.0018752305 0.0049180915 0.002333954 -0.006188695 0.016153175 0.02542656
0.007428272 -0.011318078 -0.0078015253 -0.00045397665 0.0074629784 -0.0014986331 0.0012538926 0.013543488
0.015639296 0.010932138 0.0012998179 -0.009182012 -0.0076558925 0.017316746 -0.007769559 0.00847405
-0.0026374527 -0.0003986123 -0.011229266 0.01392025 -0.006015287 0.005880192 0.006302248 -0.0047280854
0.0108763585 0.009983466 -0.008233889 0.008057828 -0.001461756 0.007264026 0.011546076 0.010140078
-0.004738806 0.007502291 0.0006011663 0.019972047 -0.0028972689 0.029377898 -0.011528149 0.015347078
0.004926793 0.007347644 0.017852398 0.01377276 0.021154365 0.0129068 0.0049253916 0.008109521
0.012968072 0.0068965782 -0.010878373 0.007840121 0.020753236 -0.009166485 0.0145857595 0.016179724
-0.0032485486 5.7975827e-05 0.0011366113 0.004925049 0.0059070336 0.003133888 0.0030331744 -0.0057136226
-0.008277881 0.014043981 0.005245654 0.0023305488 0.012369251 -0.006065282 0.030575022 0.020564374
0.01046688 0.0025799267 0.0114186965 0.0063723796 -0.003514849 0.0073983725 0.030510144 0.013987094
-0.0009278096 0.001963636 0.0021186504 0.003091981 0.018116409 0.0020031019 -0.00045397793 -0.010172348
0.010361825 0.0004810695 0.009037137 0.010222216 0.0034037551 -0.008561162 0.0031051093 -0.0013893646
0.005090149 0.014796066 0.0036939685 0.0061734337 -0.008938711 -0.008895391 0.03390297 -0.002465138
-0.0047462303 -0.010398591 0.009171003 0.03113663 0.010710512 0.009501279 0.018764649 0.024185818
0.005852357 -0.008709942 0.014711956 0.016378801 -0.012153642 0.0079895 0.002293878 0.01004069
